…
SLURM_JOB_NODELIST = gpu009
SLURM_JOB_USER = muhammadnawfal.cse.nitt
SLURM_JOB_UID = 43496
SLURM_JOB_PARTITION = gpu
SLURM_TASK_PID = 25349
SLURM_SUBMIT_DIR = /home/muhammadnawfal.cse.nitt/fyp
SLURM_CPUS_ON_NODE = 40
SLURM_NTASKS = 
SLURM_TASK_PID = 25349
==========================================
Namespace(L_g=4, L_s=4, D_g=8, D_s=4, text_deep_replace_method='replace', vision_deep_replace_method='accumulate', dataset_name='cifar100', n_runs=1, seeds=None)
CLIPParameterEfficient(
  (clip_model): CLIPModel(
    (text_model): CLIPTextTransformer(
      (embeddings): CLIPTextEmbeddings(
        (token_embedding): Embedding(49408, 512)
        (position_embedding): Embedding(77, 512)
      )
      (encoder): CLIPEncoder(
        (layers): ModuleList(
          (0-11): 12 x CLIPEncoderLayer(
            (self_attn): CLIPSdpaAttention(
              (k_proj): Linear(in_features=512, out_features=512, bias=True)
              (v_proj): Linear(in_features=512, out_features=512, bias=True)
              (q_proj): Linear(in_features=512, out_features=512, bias=True)
              (out_proj): Linear(in_features=512, out_features=512, bias=True)
            )
            (layer_norm1): LayerNorm((512,), eps=1e-05, elementwise_affine=True)
            (mlp): CLIPMLP(
              (activation_fn): QuickGELUActivation()
              (fc1): Linear(in_features=512, out_features=2048, bias=True)
              (fc2): Linear(in_features=2048, out_features=512, bias=True)
            )
            (layer_norm2): LayerNorm((512,), eps=1e-05, elementwise_affine=True)
          )
        )
      )
      (final_layer_norm): LayerNorm((512,), eps=1e-05, elementwise_affine=True)
    )
    (vision_model): CLIPVisionTransformer(
      (embeddings): CLIPVisionEmbeddings(
        (patch_embedding): Conv2d(3, 768, kernel_size=(16, 16), stride=(16, 16), bias=False)
        (position_embedding): Embedding(197, 768)
      )
      (pre_layrnorm): LayerNorm((768,), eps=1e-05, elementwise_affine=True)
      (encoder): CLIPEncoder(
        (layers): ModuleList(
          (0-11): 12 x CLIPEncoderLayer(
            (self_attn): CLIPSdpaAttention(
              (k_proj): Linear(in_features=768, out_features=768, bias=True)
              (v_proj): Linear(in_features=768, out_features=768, bias=True)
              (q_proj): Linear(in_features=768, out_features=768, bias=True)
              (out_proj): Linear(in_features=768, out_features=768, bias=True)
            )
            (layer_norm1): LayerNorm((768,), eps=1e-05, elementwise_affine=True)
            (mlp): CLIPMLP(
              (activation_fn): QuickGELUActivation()
              (fc1): Linear(in_features=768, out_features=3072, bias=True)
              (fc2): Linear(in_features=3072, out_features=768, bias=True)
            )
            (layer_norm2): LayerNorm((768,), eps=1e-05, elementwise_affine=True)
          )
        )
      )
      (post_layernorm): LayerNorm((768,), eps=1e-05, elementwise_affine=True)
    )
    (visual_projection): Linear(in_features=768, out_features=512, bias=False)
    (text_projection): Linear(in_features=512, out_features=512, bias=False)
  )
  (text_model): CLIPTextModelForPromptTuning(
    (model): CLIPTextTransformer(
      (embeddings): CLIPTextEmbeddings(
        (token_embedding): Embedding(49408, 512)
        (position_embedding): Embedding(77, 512)
      )
      (encoder): CLIPEncoder(
        (layers): ModuleList(
          (0-11): 12 x CLIPEncoderLayer(
            (self_attn): CLIPSdpaAttention(
              (k_proj): Linear(in_features=512, out_features=512, bias=True)
              (v_proj): Linear(in_features=512, out_features=512, bias=True)
              (q_proj): Linear(in_features=512, out_features=512, bias=True)
              (out_proj): Linear(in_features=512, out_features=512, bias=True)
            )
            (layer_norm1): LayerNorm((512,), eps=1e-05, elementwise_affine=True)
            (mlp): CLIPMLP(
              (activation_fn): QuickGELUActivation()
              (fc1): Linear(in_features=512, out_features=2048, bias=True)
              (fc2): Linear(in_features=2048, out_features=512, bias=True)
            )
            (layer_norm2): LayerNorm((512,), eps=1e-05, elementwise_affine=True)
          )
        )
      )
      (final_layer_norm): LayerNorm((512,), eps=1e-05, elementwise_affine=True)
    )
  )
  (vision_model): CLIPVisionModelForPromptTuning(
    (model): CLIPVisionTransformer(
      (embeddings): CLIPVisionEmbeddings(
        (patch_embedding): Conv2d(3, 768, kernel_size=(16, 16), stride=(16, 16), bias=False)
        (position_embedding): Embedding(197, 768)
      )
      (pre_layrnorm): LayerNorm((768,), eps=1e-05, elementwise_affine=True)
      (encoder): CLIPEncoder(
        (layers): ModuleList(
          (0-11): 12 x CLIPEncoderLayer(
            (self_attn): CLIPSdpaAttention(
              (k_proj): Linear(in_features=768, out_features=768, bias=True)
              (v_proj): Linear(in_features=768, out_features=768, bias=True)
              (q_proj): Linear(in_features=768, out_features=768, bias=True)
              (out_proj): Linear(in_features=768, out_features=768, bias=True)
            )
            (layer_norm1): LayerNorm((768,), eps=1e-05, elementwise_affine=True)
            (mlp): CLIPMLP(
              (activation_fn): QuickGELUActivation()
              (fc1): Linear(in_features=768, out_features=3072, bias=True)
              (fc2): Linear(in_features=3072, out_features=768, bias=True)
            )
            (layer_norm2): LayerNorm((768,), eps=1e-05, elementwise_affine=True)
          )
        )
      )
      (post_layernorm): LayerNorm((768,), eps=1e-05, elementwise_affine=True)
    )
  )
  (image_proj): Linear(in_features=768, out_features=512, bias=False)
  (text_proj): Linear(in_features=512, out_features=512, bias=False)
  (prompt_proj): MultiHeadSelfAttention(
    (qkv_proj): Linear(in_features=512, out_features=2304, bias=True)
    (out_proj): Linear(in_features=768, out_features=768, bias=True)
  )
)
Start of experience 1
Current classes: [0, 1, 2, 3, 4, 5, 6, 7, 8, 9, 10, 11, 12, 13, 14, 15, 16, 17, 18, 19, 20, 21, 22, 23, 24, 25, 26, 27, 28, 29, 30, 31, 32, 33, 34, 35, 36, 37, 38, 39, 40, 41, 42, 43, 44, 45, 46, 47, 48, 49, 50, 51, 52, 53, 54, 55, 56, 57, 58, 59]
-- >> Start of training phase << --
0it [00:00, ?it/s]  0%|          | 1/938
…
